…
RATS_281', 'BRATS_282', 'BRATS_287', 'BRATS_289', 'BRATS_291', 'BRATS_292', 'BRATS_310', 'BRATS_314', 'BRATS_323', 'BRATS_327', 'BRATS_330', 'BRATS_333', 'BRATS_337', 'BRATS_346', 'BRATS_350', 'BRATS_352', 'BRATS_361', 'BRATS_382', 'BRATS_397']) 
2024-06-09 22:17:46.492266: lr: 0.001 
2024-06-09 22:17:56.681247: Unable to plot network architecture: 
2024-06-09 22:17:56.681818: No module named 'hiddenlayer' 
2024-06-09 22:17:56.681907: 
printing the network instead:
 
2024-06-09 22:17:56.682262: nnFormer(
  (encoder): MambaEncoder(
    (in_conv): DoubleConv(
      (conv): Sequential(
        (0): Conv3d(4, 48, kernel_size=(3, 3, 3), stride=(2, 2, 2), padding=(1, 1, 1))
        (1): BatchNorm3d(48, eps=1e-05, momentum=0.1, affine=True, track_running_stats=True)
        (2): ReLU(inplace=True)
        (3): Conv3d(48, 48, kernel_size=(3, 3, 3), stride=(1, 1, 1), padding=(1, 1, 1))
        (4): BatchNorm3d(48, eps=1e-05, momentum=0.1, affine=True, track_running_stats=True)
        (5): ReLU(inplace=True)
      )
    )
    (pooling): AdaptiveAvgPool3d(output_size=(1, 1, 1))
    (att1): Attentionlayer(
      (layer1): Linear(in_features=48, out_features=3, bias=True)
      (layer2): Linear(in_features=3, out_features=48, bias=True)
      (relu): ReLU()
      (sigmoid): Sigmoid()
    )
    (layer1): Sequential(
      (0): BasicBlock(
        (conv1): Conv3d(48, 96, kernel_size=(3, 3, 3), stride=(2, 2, 2), padding=(1, 1, 1), bias=False)
        (bn1): BatchNorm3d(96, eps=1e-05, momentum=0.1, affine=True, track_running_stats=True)
        (relu): ReLU(inplace=True)
        (conv2): Conv3d(96, 96, kernel_size=(3, 3, 3), stride=(1, 1, 1), padding=(1, 1, 1), bias=False)
        (bn2): BatchNorm3d(96, eps=1e-05, momentum=0.1, affine=True, track_running_stats=True)
        (downsample): Sequential(
          (0): Conv3d(48, 96, kernel_size=(1, 1, 1), stride=(2, 2, 2), bias=False)
          (1): BatchNorm3d(96, eps=1e-05, momentum=0.1, affine=True, track_running_stats=True)
        )
      )
      (1): BasicBlock(
        (conv1): Conv3d(96, 96, kernel_size=(3, 3, 3), stride=(1, 1, 1), padding=(1, 1, 1), bias=False)
        (bn1): BatchNorm3d(96, eps=1e-05, momentum=0.1, affine=True, track_running_stats=True)
        (relu): ReLU(inplace=True)
        (conv2): Conv3d(96, 96, kernel_size=(3, 3, 3), stride=(1, 1, 1), padding=(1, 1, 1), bias=False)
        (bn2): BatchNorm3d(96, eps=1e-05, momentum=0.1, affine=True, track_running_stats=True)
        (mamba_layer): MambaLayer(
          (nin): Conv3d(96, 96, kernel_size=(1, 1, 1), stride=(1, 1, 1), bias=False)
          (norm): BatchNorm3d(96, eps=1e-05, momentum=0.1, affine=True, track_running_stats=True)
          (relu): ReLU(inplace=True)
          (mamba): Mamba(
            (in_proj): Linear(in_features=96, out_features=384, bias=False)
            (conv1d): Conv1d(192, 192, kernel_size=(4,), stride=(1,), padding=(3,), groups=192)
            (act): SiLU()
            (x_proj): Linear(in_features=192, out_features=38, bias=False)
            (dt_proj): Linear(in_features=6, out_features=192, bias=True)
            (out_proj): Linear(in_features=192, out_features=96, bias=False)
          )
        )
      )
      (2): BasicBlock(
        (conv1): Conv3d(96, 96, kernel_size=(3, 3, 3), stride=(1, 1, 1), padding=(1, 1, 1), bias=False)
        (bn1): BatchNorm3d(96, eps=1e-05, momentum=0.1, affine=True, track_running_stats=True)
        (relu): ReLU(inplace=True)
        (conv2): Conv3d(96, 96, kernel_size=(3, 3, 3), stride=(1, 1, 1), padding=(1, 1, 1), bias=False)
        (bn2): BatchNorm3d(96, eps=1e-05, momentum=0.1, affine=True, track_running_stats=True)
        (mamba_layer): MambaLayer(
          (nin): Conv3d(96, 96, kernel_size=(1, 1, 1), stride=(1, 1, 1), bias=False)
          (norm): BatchNorm3d(96, eps=1e-05, momentum=0.1, affine=True, track_running_stats=True)
          (relu): ReLU(inplace=True)
          (mamba): Mamba(
            (in_proj): Linear(in_features=96, out_features=384, bias=False)
            (conv1d): Conv1d(192, 192, kernel_size=(4,), stride=(1,), padding=(3,), groups=192)
            (act): SiLU()
            (x_proj): Linear(in_features=192, out_features=38, bias=False)
            (dt_proj): Linear(in_features=6, out_features=192, bias=True)
            (out_proj): Linear(in_features=192, out_features=96, bias=False)
          )
        )
      )
    )
    (att2): Attentionlayer(
      (layer1): Linear(in_features=96, out_features=6, bias=True)
      (layer2): Linear(in_features=6, out_features=96, bias=True)
      (relu): ReLU()
      (sigmoid): Sigmoid()
    )
    (layer2): Sequential(
      (0): BasicBlock(
        (conv1): Conv3d(96, 192, kernel_size=(3, 3, 3), stride=(2, 2, 2), padding=(1, 1, 1), bias=False)
        (bn1): BatchNorm3d(192, eps=1e-05, momentum=0.1, affine=True, track_running_stats=True)
        (relu): ReLU(inplace=True)
        (conv2): Conv3d(192, 192, kernel_size=(3, 3, 3), stride=(1, 1, 1), padding=(1, 1, 1), bias=False)
        (bn2): BatchNorm3d(192, eps=1e-05, momentum=0.1, affine=True, track_running_stats=True)
        (downsample): Sequential(
          (0): Conv3d(96, 192, kernel_size=(1, 1, 1), stride=(2, 2, 2), bias=False)
          (1): BatchNorm3d(192, eps=1e-05, momentum=0.1, affine=True, track_running_stats=True)
        )
      )
      (1): BasicBlock(
        (conv1): Conv3d(192, 192, kernel_size=(3, 3, 3), stride=(1, 1, 1), padding=(1, 1, 1), bias=False)
        (bn1): BatchNorm3d(192, eps=1e-05, momentum=0.1, affine=True, track_running_stats=True)
        (relu): ReLU(inplace=True)
        (conv2): Conv3d(192, 192, kernel_size=(3, 3, 3), stride=(1, 1, 1), padding=(1, 1, 1), bias=False)
        (bn2): BatchNorm3d(192, eps=1e-05, momentum=0.1, affine=True, track_running_stats=True)
        (mamba_layer): MambaLayer(
          (nin): Conv3d(192, 192, kernel_size=(1, 1, 1), stride=(1, 1, 1), bias=False)
          (norm): BatchNorm3d(192, eps=1e-05, momentum=0.1, affine=True, track_running_stats=True)
          (relu): ReLU(inplace=True)
          (mamba): Mamba(
            (in_proj): Linear(in_features=192, out_features=768, bias=False)
            (conv1d): Conv1d(384, 384, kernel_size=(4,), stride=(1,), padding=(3,), groups=384)
            (act): SiLU()
            (x_proj): Linear(in_features=384, out_features=44, bias=False)
            (dt_proj): Linear(in_features=12, out_features=384, bias=True)
            (out_proj): Linear(in_features=384, out_features=192, bias=False)
          )
        )
      )
      (2): BasicBlock(
        (conv1): Conv3d(192, 192, kernel_size=(3, 3, 3), stride=(1, 1, 1), padding=(1, 1, 1), bias=False)
        (bn1): BatchNorm3d(192, eps=1e-05, momentum=0.1, affine=True, track_running_stats=True)
        (relu): ReLU(inplace=True)
        (conv2): Conv3d(192, 192, kernel_size=(3, 3, 3), stride=(1, 1, 1), padding=(1, 1, 1), bias=False)
        (bn2): BatchNorm3d(192, eps=1e-05, momentum=0.1, affine=True, track_running_stats=True)
        (mamba_layer): MambaLayer(
          (nin): Conv3d(192, 192, kernel_size=(1, 1, 1), stride=(1, 1, 1), bias=False)
          (norm): BatchNorm3d(192, eps=1e-05, momentum=0.1, affine=True, track_running_stats=True)
          (relu): ReLU(inplace=True)
          (mamba): Mamba(
            (in_proj): Linear(in_features=192, out_features=768, bias=False)
            (conv1d): Conv1d(384, 384, kernel_size=(4,), stride=(1,), padding=(3,), groups=384)
            (act): SiLU()
            (x_proj): Linear(in_features=384, out_features=44, bias=False)
            (dt_proj): Linear(in_features=12, out_features=384, bias=True)
            (out_proj): Linear(in_features=384, out_features=192, bias=False)
          )
        )
      )
    )
    (att3): Attentionlayer(
      (layer1): Linear(in_features=192, out_features=12, bias=True)
      (layer2): Linear(in_features=12, out_features=192, bias=True)
      (relu): ReLU()
      (sigmoid): Sigmoid()
    )
    (layer3): Sequential(
      (0): BasicBlock(
        (conv1): Conv3d(192, 384, kernel_size=(3, 3, 3), stride=(2, 2, 2), padding=(1, 1, 1), bias=False)
        (bn1): BatchNorm3d(384, eps=1e-05, momentum=0.1, affine=True, track_running_stats=True)
        (relu): ReLU(inplace=True)
        (conv2): Conv3d(384, 384, kernel_size=(3, 3, 3), stride=(1, 1, 1), padding=(1, 1, 1), bias=False)
        (bn2): BatchNorm3d(384, eps=1e-05, momentum=0.1, affine=True, track_running_stats=True)
        (downsample): Sequential(
          (0): Conv3d(192, 384, kernel_size=(1, 1, 1), stride=(2, 2, 2), bias=False)
          (1): BatchNorm3d(384, eps=1e-05, momentum=0.1, affine=True, track_running_stats=True)
        )
      )
      (1): BasicBlock(
        (conv1): Conv3d(384, 384, kernel_size=(3, 3, 3), stride=(1, 1, 1), padding=(1, 1, 1), bias=False)
        (bn1): BatchNorm3d(384, eps=1e-05, momentum=0.1, affine=True, track_running_stats=True)
        (relu): ReLU(inplace=True)
        (conv2): Conv3d(384, 384, kernel_size=(3, 3, 3), stride=(1, 1, 1), padding=(1, 1, 1), bias=False)
        (bn2): BatchNorm3d(384, eps=1e-05, momentum=0.1, affine=True, track_running_stats=True)
        (mamba_layer): MambaLayer(
          (nin): Conv3d(384, 384, kernel_size=(1, 1, 1), stride=(1, 1, 1), bias=False)
          (norm): BatchNorm3d(384, eps=1e-05, momentum=0.1, affine=True, track_running_stats=True)
          (relu): ReLU(inplace=True)
          (mamba): Mamba(
            (in_proj): Linear(in_features=384, out_features=1536, bias=False)
            (conv1d): Conv1d(768, 768, kernel_size=(4,), stride=(1,), padding=(3,), groups=768)
            (act): SiLU()
            (x_proj): Linear(in_features=768, out_features=56, bias=False)
            (dt_proj): Linear(in_features=24, out_features=768, bias=True)
            (out_proj): Linear(in_features=768, out_features=384, bias=False)
          )
        )
      )
      (2): BasicBlock(
        (conv1): Conv3d(384, 384, kernel_size=(3, 3, 3), stride=(1, 1, 1), padding=(1, 1, 1), bias=False)
        (bn1): BatchNorm3d(384, eps=1e-05, momentum=0.1, affine=True, track_running_stats=True)
        (relu): ReLU(inplace=True)
        (conv2): Conv3d(384, 384, kernel_size=(3, 3, 3), stride=(1, 1, 1), padding=(1, 1, 1), bias=False)
        (bn2): BatchNorm3d(384, eps=1e-05, momentum=0.1, affine=True, track_running_stats=True)
        (mamba_layer): MambaLayer(
          (nin): Conv3d(384, 384, kernel_size=(1, 1, 1), stride=(1, 1, 1), bias=False)
          (norm): BatchNorm3d(384, eps=1e-05, momentum=0.1, affine=True, track_running_stats=True)
          (relu): ReLU(inplace=True)
          (mamba): Mamba(
            (in_proj): Linear(in_features=384, out_features=1536, bias=False)
            (conv1d): Conv1d(768, 768, kernel_size=(4,), stride=(1,), padding=(3,), groups=768)
            (act): SiLU()
            (x_proj): Linear(in_features=768, out_features=56, bias=False)
            (dt_proj): Linear(in_features=24, out_features=768, bias=True)
            (out_proj): Linear(in_features=768, out_features=384, bias=False)
          )
        )
      )
    )
    (att4): Attentionlayer(
      (layer1): Linear(in_features=384, out_features=24, bias=True)
      (layer2): Linear(in_features=24, out_features=384, bias=True)
      (relu): ReLU()
      (sigmoid): Sigmoid()
    )
    (layer4): Sequential(
      (0): BasicBlock(
        (conv1): Conv3d(384, 768, kernel_size=(3, 3, 3), stride=(2, 2, 2), padding=(1, 1, 1), bias=False)
        (bn1): BatchNorm3d(768, eps=1e-05, momentum=0.1, affine=True, track_running_stats=True)
        (relu): ReLU(inplace=True)
        (conv2): Conv3d(768, 768, kernel_size=(3, 3, 3), stride=(1, 1, 1), padding=(1, 1, 1), bias=False)
        (bn2): BatchNorm3d(768, eps=1e-05, momentum=0.1, affine=True, track_running_stats=True)
        (downsample): Sequential(
          (0): Conv3d(384, 768, kernel_size=(1, 1, 1), stride=(2, 2, 2), bias=False)
          (1): BatchNorm3d(768, eps=1e-05, momentum=0.1, affine=True, track_running_stats=True)
        )
      )
      (1): BasicBlock(
        (conv1): Conv3d(768, 768, kernel_size=(3, 3, 3), stride=(1, 1, 1), padding=(1, 1, 1), bias=False)
        (bn1): BatchNorm3d(768, eps=1e-05, momentum=0.1, affine=True, track_running_stats=True)
        (relu): ReLU(inplace=True)
        (conv2): Conv3d(768, 768, kernel_size=(3, 3, 3), stride=(1, 1, 1), padding=(1, 1, 1), bias=False)
        (bn2): BatchNorm3d(768, eps=1e-05, momentum=0.1, affine=True, track_running_stats=True)
        (mamba_layer): MambaLayer(
          (nin): Conv3d(768, 768, kernel_size=(1, 1, 1), stride=(1, 1, 1), bias=False)
          (norm): BatchNorm3d(768, eps=1e-05, momentum=0.1, affine=True, track_running_stats=True)
          (relu): ReLU(inplace=True)
          (mamba): Mamba(
            (in_proj): Linear(in_features=768, out_features=3072, bias=False)
            (conv1d): Conv1d(1536, 1536, kernel_size=(4,), stride=(1,), padding=(3,), groups=1536)
            (act): SiLU()
            (x_proj): Linear(in_features=1536, out_features=80, bias=False)
            (dt_proj): Linear(in_features=48, out_features=1536, bias=True)
            (out_proj): Linear(in_features=1536, out_features=768, bias=False)
          )
        )
      )
      (2): BasicBlock(
        (conv1): Conv3d(768, 768, kernel_size=(3, 3, 3), stride=(1, 1, 1), padding=(1, 1, 1), bias=False)
        (bn1): BatchNorm3d(768, eps=1e-05, momentum=0.1, affine=True, track_running_stats=True)
        (relu): ReLU(inplace=True)
        (conv2): Conv3d(768, 768, kernel_size=(3, 3, 3), stride=(1, 1, 1), padding=(1, 1, 1), bias=False)
        (bn2): BatchNorm3d(768, eps=1e-05, momentum=0.1, affine=True, track_running_stats=True)
        (mamba_layer): MambaLayer(
          (nin): Conv3d(768, 768, kernel_size=(1, 1, 1), stride=(1, 1, 1), bias=False)
          (norm): BatchNorm3d(768, eps=1e-05, momentum=0.1, affine=True, track_running_stats=True)
          (relu): ReLU(inplace=True)
          (mamba): Mamba(
            (in_proj): Linear(in_features=768, out_features=3072, bias=False)
            (conv1d): Conv1d(1536, 1536, kernel_size=(4,), stride=(1,), padding=(3,), groups=1536)
            (act): SiLU()
            (x_proj): Linear(in_features=1536, out_features=80, bias=False)
            (dt_proj): Linear(in_features=48, out_features=1536, bias=True)
            (out_proj): Linear(in_features=1536, out_features=768, bias=False)
          )
        )
      )
    )
  )
  (decoder): Decoder(
    (pos_drop): Dropout(p=0.0, inplace=False)
    (layers): ModuleList(
      (0): BasicLayer_up(
        (blocks): ModuleList(
          (0): SwinTransformerBlock_kv(
            (norm1): LayerNorm((96,), eps=1e-05, elementwise_affine=True)
            (attn): WindowAttention_kv(
              (kv): Linear(in_features=96, out_features=192, bias=True)
              (attn_drop): Dropout(p=0.0, inplace=False)
              (proj): Linear(in_features=96, out_features=96, bias=True)
              (proj_drop): Dropout(p=0.0, inplace=False)
              (softmax): Softmax(dim=-1)
            )
            (drop_path): DropPath()
            (norm2): LayerNorm((96,), eps=1e-05, elementwise_affine=True)
            (mlp): Mlp(
              (fc1): Linear(in_features=96, out_features=384, bias=True)
              (act): GELU(approximate='none')
              (fc2): Linear(in_features=384, out_features=96, bias=True)
              (drop): Dropout(p=0.0, inplace=False)
            )
          )
          (1): SwinTransformerBlock(
            (norm1): LayerNorm((96,), eps=1e-05, elementwise_affine=True)
            (attn): WindowAttention(
              (qkv): Linear(in_features=96, out_features=288, bias=True)
              (attn_drop): Dropout(p=0.0, inplace=False)
              (proj): Linear(in_features=96, out_features=96, bias=True)
              (proj_drop): Dropout(p=0.0, inplace=False)
              (softmax): Softmax(dim=-1)
            )
            (drop_path): DropPath()
            (norm2): LayerNorm((96,), eps=1e-05, elementwise_affine=True)
            (mlp): Mlp(
              (fc1): Linear(in_features=96, out_features=384, bias=True)
              (act): GELU(approximate='none')
              (fc2): Linear(in_features=384, out_features=96, bias=True)
              (drop): Dropout(p=0.0, inplace=False)
            )
          )
        )
        (Upsample): Patch_Expanding(
          (norm): LayerNorm((192,), eps=1e-05, elementwise_affine=True)
          (up): ConvTranspose3d(192, 96, kernel_size=(2, 2, 2), stride=(2, 2, 2))
        )
      )
      (1): BasicLayer_up(
        (blocks): ModuleList(
          (0): SwinTransformerBlock_kv(
            (norm1): LayerNorm((192,), eps=1e-05, elementwise_affine=True)
            (attn): WindowAttention_kv(
              (kv): Linear(in_features=192, out_features=384, bias=True)
              (attn_drop): Dropout(p=0.0, inplace=False)
              (proj): Linear(in_features=192, out_features=192, bias=True)
              (proj_drop): Dropout(p=0.0, inplace=False)
              (softmax): Softmax(dim=-1)
            )
            (drop_path): DropPath()
            (norm2): LayerNorm((192,), eps=1e-05, elementwise_affine=True)
            (mlp): Mlp(
              (fc1): Linear(in_features=192, out_features=768, bias=True)
              (act): GELU(approximate='none')
              (fc2): Linear(in_features=768, out_features=192, bias=True)
              (drop): Dropout(p=0.0, inplace=False)
            )
          )
          (1): SwinTransformerBlock(
            (norm1): LayerNorm((192,), eps=1e-05, elementwise_affine=True)
            (attn): WindowAttention(
              (qkv): Linear(in_features=192, out_features=576, bias=True)
              (attn_drop): Dropout(p=0.0, inplace=False)
              (proj): Linear(in_features=192, out_features=192, bias=True)
              (proj_drop): Dropout(p=0.0, inplace=False)
              (softmax): Softmax(dim=-1)
            )
            (drop_path): DropPath()
            (norm2): LayerNorm((192,), eps=1e-05, elementwise_affine=True)
            (mlp): Mlp(
              (fc1): Linear(in_features=192, out_features=768, bias=True)
              (act): GELU(approximate='none')
              (fc2): Linear(in_features=768, out_features=192, bias=True)
              (drop): Dropout(p=0.0, inplace=False)
            )
          )
        )
        (Upsample): Patch_Expanding(
          (norm): LayerNorm((384,), eps=1e-05, elementwise_affine=True)
          (up): ConvTranspose3d(384, 192, kernel_size=(2, 2, 2), stride=(2, 2, 2))
        )
      )
      (2): BasicLayer_up(
        (blocks): ModuleList(
          (0): SwinTransformerBlock_kv(
            (norm1): LayerNorm((384,), eps=1e-05, elementwise_affine=True)
            (attn): WindowAttention_kv(
              (kv): Linear(in_features=384, out_features=768, bias=True)
              (attn_drop): Dropout(p=0.0, inplace=False)
              (proj): Linear(in_features=384, out_features=384, bias=True)
              (proj_drop): Dropout(p=0.0, inplace=False)
              (softmax): Softmax(dim=-1)
            )
            (drop_path): Identity()
            (norm2): LayerNorm((384,), eps=1e-05, elementwise_affine=True)
            (mlp): Mlp(
              (fc1): Linear(in_features=384, out_features=1536, bias=True)
              (act): GELU(approximate='none')
              (fc2): Linear(in_features=1536, out_features=384, bias=True)
              (drop): Dropout(p=0.0, inplace=False)
            )
          )
          (1): SwinTransformerBlock(
            (norm1): LayerNorm((384,), eps=1e-05, elementwise_affine=True)
            (attn): WindowAttention(
              (qkv): Linear(in_features=384, out_features=1152, bias=True)
              (attn_drop): Dropout(p=0.0, inplace=False)
              (proj): Linear(in_features=384, out_features=384, bias=True)
              (proj_drop): Dropout(p=0.0, inplace=False)
              (softmax): Softmax(dim=-1)
            )
            (drop_path): DropPath()
            (norm2): LayerNorm((384,), eps=1e-05, elementwise_affine=True)
            (mlp): Mlp(
              (fc1): Linear(in_features=384, out_features=1536, bias=True)
              (act): GELU(approximate='none')
              (fc2): Linear(in_features=1536, out_features=384, bias=True)
              (drop): Dropout(p=0.0, inplace=False)
            )
          )
        )
        (Upsample): Patch_Expanding(
          (norm): LayerNorm((768,), eps=1e-05, elementwise_affine=True)
          (up): ConvTranspose3d(768, 384, kernel_size=(2, 2, 2), stride=(2, 2, 2))
        )
      )
    )
  )
  (encoder1): UnetrBasicBlock(
    (layer): UnetResBlock(
      (conv1): Convolution(
        (conv): Conv3d(96, 96, kernel_size=(3, 3, 3), stride=(1, 1, 1), padding=(1, 1, 1), bias=False)
      )
      (conv2): Convolution(
        (conv): Conv3d(96, 96, kernel_size=(3, 3, 3), stride=(1, 1, 1), padding=(1, 1, 1), bias=False)
      )
      (lrelu): LeakyReLU(negative_slope=0.01, inplace=True)
      (norm1): InstanceNorm3d(96, eps=1e-05, momentum=0.1, affine=False, track_running_stats=False)
      (norm2): InstanceNorm3d(96, eps=1e-05, momentum=0.1, affine=False, track_running_stats=False)
    )
  )
  (encoder2): UnetrBasicBlock(
    (layer): UnetResBlock(
      (conv1): Convolution(
        (conv): Conv3d(192, 192, kernel_size=(3, 3, 3), stride=(1, 1, 1), padding=(1, 1, 1), bias=False)
      )
      (conv2): Convolution(
        (conv): Conv3d(192, 192, kernel_size=(3, 3, 3), stride=(1, 1, 1), padding=(1, 1, 1), bias=False)
      )
      (lrelu): LeakyReLU(negative_slope=0.01, inplace=True)
      (norm1): InstanceNorm3d(192, eps=1e-05, momentum=0.1, affine=False, track_running_stats=False)
      (norm2): InstanceNorm3d(192, eps=1e-05, momentum=0.1, affine=False, track_running_stats=False)
    )
  )
  (encoder3): UnetrBasicBlock(
    (layer): UnetResBlock(
      (conv1): Convolution(
        (conv): Conv3d(384, 384, kernel_size=(3, 3, 3), stride=(1, 1, 1), padding=(1, 1, 1), bias=False)
      )
      (conv2): Convolution(
        (conv): Conv3d(384, 384, kernel_size=(3, 3, 3), stride=(1, 1, 1), padding=(1, 1, 1), bias=False)
      )
      (lrelu): LeakyReLU(negative_slope=0.01, inplace=True)
      (norm1): InstanceNorm3d(384, eps=1e-05, momentum=0.1, affine=False, track_running_stats=False)
      (norm2): InstanceNorm3d(384, eps=1e-05, momentum=0.1, affine=False, track_running_stats=False)
    )
  )
  (encoder4): UnetrBasicBlock(
    (layer): UnetResBlock(
      (conv1): Convolution(
        (conv): Conv3d(768, 768, kernel_size=(3, 3, 3), stride=(1, 1, 1), padding=(1, 1, 1), bias=False)
      )
      (conv2): Convolution(
        (conv): Conv3d(768, 768, kernel_size=(3, 3, 3), stride=(1, 1, 1), padding=(1, 1, 1), bias=False)
      )
      (lrelu): LeakyReLU(negative_slope=0.01, inplace=True)
      (norm1): InstanceNorm3d(768, eps=1e-05, momentum=0.1, affine=False, track_running_stats=False)
      (norm2): InstanceNorm3d(768, eps=1e-05, momentum=0.1, affine=False, track_running_stats=False)
    )
  )
  (final): ModuleList(
    (0): final_patch_expanding(
      (up): ConvTranspose3d(96, 4, kernel_size=(4, 4, 4), stride=(4, 4, 4))
    )
  )
) 
2024-06-09 22:17:56.730800: 
 
2024-06-09 22:17:56.732178: 
epoch:  0 
2024-06-09 22:19:33.045808: train loss : 0.1486 
2024-06-09 22:19:39.494627: validation loss: -0.1080 
2024-06-09 22:19:39.498619: Average global foreground Dice: [0.5582897101822855, 0.033806822215506065, 0.24018077644181457] 
2024-06-09 22:19:39.498810: (interpret this as an estimate for the Dice of the different classes. This is not exact.) 
…
