…
 'BRATS_282', 'BRATS_287', 'BRATS_289', 'BRATS_291', 'BRATS_292', 'BRATS_310', 'BRATS_314', 'BRATS_323', 'BRATS_327', 'BRATS_330', 'BRATS_333', 'BRATS_337', 'BRATS_346', 'BRATS_350', 'BRATS_352', 'BRATS_361', 'BRATS_382', 'BRATS_397']) 
2024-05-15 18:40:02.111584: lr: 0.001 
2024-05-15 18:40:11.419912: Unable to plot network architecture: 
2024-05-15 18:40:11.424354: No module named 'hiddenlayer' 
2024-05-15 18:40:11.424916: 
printing the network instead:
 
2024-05-15 18:40:11.425449: nnFormer(
  (model_down): MambaEncoder(
    (downsample_layers): ModuleList(
      (0): Sequential(
        (0): Conv3d(4, 48, kernel_size=(7, 7, 7), stride=(2, 2, 2), padding=(3, 3, 3))
      )
      (1): Sequential(
        (0): InstanceNorm3d(48, eps=1e-05, momentum=0.1, affine=False, track_running_stats=False)
        (1): Conv3d(48, 96, kernel_size=(2, 2, 2), stride=(2, 2, 2))
      )
      (2): Sequential(
        (0): InstanceNorm3d(96, eps=1e-05, momentum=0.1, affine=False, track_running_stats=False)
        (1): Conv3d(96, 192, kernel_size=(2, 2, 2), stride=(2, 2, 2))
      )
      (3): Sequential(
        (0): InstanceNorm3d(192, eps=1e-05, momentum=0.1, affine=False, track_running_stats=False)
        (1): Conv3d(192, 384, kernel_size=(2, 2, 2), stride=(2, 2, 2))
      )
      (4): Sequential(
        (0): InstanceNorm3d(384, eps=1e-05, momentum=0.1, affine=False, track_running_stats=False)
        (1): Conv3d(384, 768, kernel_size=(2, 2, 2), stride=(2, 2, 2))
      )
    )
    (stages): ModuleList(
      (0): Sequential(
        (0): MambaLayer(
          (norm): LayerNorm((48,), eps=1e-05, elementwise_affine=True)
          (mamba): Mamba(
            (in_proj): Linear(in_features=48, out_features=192, bias=False)
            (conv1d): Conv1d(96, 96, kernel_size=(4,), stride=(1,), padding=(3,), groups=96)
            (act): SiLU()
            (x_proj): Linear(in_features=96, out_features=35, bias=False)
            (dt_proj): Linear(in_features=3, out_features=96, bias=True)
            (conv1d_b): Conv1d(96, 96, kernel_size=(4,), stride=(1,), padding=(3,), groups=96)
            (x_proj_b): Linear(in_features=96, out_features=35, bias=False)
            (dt_proj_b): Linear(in_features=3, out_features=96, bias=True)
            (conv1d_s): Conv1d(96, 96, kernel_size=(4,), stride=(1,), padding=(3,), groups=96)
            (x_proj_s): Linear(in_features=96, out_features=35, bias=False)
            (dt_proj_s): Linear(in_features=3, out_features=96, bias=True)
            (out_proj): Linear(in_features=96, out_features=48, bias=False)
          )
        )
        (1): MambaLayer(
          (norm): LayerNorm((48,), eps=1e-05, elementwise_affine=True)
          (mamba): Mamba(
            (in_proj): Linear(in_features=48, out_features=192, bias=False)
            (conv1d): Conv1d(96, 96, kernel_size=(4,), stride=(1,), padding=(3,), groups=96)
            (act): SiLU()
            (x_proj): Linear(in_features=96, out_features=35, bias=False)
            (dt_proj): Linear(in_features=3, out_features=96, bias=True)
            (conv1d_b): Conv1d(96, 96, kernel_size=(4,), stride=(1,), padding=(3,), groups=96)
            (x_proj_b): Linear(in_features=96, out_features=35, bias=False)
            (dt_proj_b): Linear(in_features=3, out_features=96, bias=True)
            (conv1d_s): Conv1d(96, 96, kernel_size=(4,), stride=(1,), padding=(3,), groups=96)
            (x_proj_s): Linear(in_features=96, out_features=35, bias=False)
            (dt_proj_s): Linear(in_features=3, out_features=96, bias=True)
            (out_proj): Linear(in_features=96, out_features=48, bias=False)
          )
        )
      )
      (1): Sequential(
        (0): MambaLayer(
          (norm): LayerNorm((96,), eps=1e-05, elementwise_affine=True)
          (mamba): Mamba(
            (in_proj): Linear(in_features=96, out_features=384, bias=False)
            (conv1d): Conv1d(192, 192, kernel_size=(4,), stride=(1,), padding=(3,), groups=192)
            (act): SiLU()
            (x_proj): Linear(in_features=192, out_features=38, bias=False)
            (dt_proj): Linear(in_features=6, out_features=192, bias=True)
            (conv1d_b): Conv1d(192, 192, kernel_size=(4,), stride=(1,), padding=(3,), groups=192)
            (x_proj_b): Linear(in_features=192, out_features=38, bias=False)
            (dt_proj_b): Linear(in_features=6, out_features=192, bias=True)
            (conv1d_s): Conv1d(192, 192, kernel_size=(4,), stride=(1,), padding=(3,), groups=192)
            (x_proj_s): Linear(in_features=192, out_features=38, bias=False)
            (dt_proj_s): Linear(in_features=6, out_features=192, bias=True)
            (out_proj): Linear(in_features=192, out_features=96, bias=False)
          )
        )
        (1): MambaLayer(
          (norm): LayerNorm((96,), eps=1e-05, elementwise_affine=True)
          (mamba): Mamba(
            (in_proj): Linear(in_features=96, out_features=384, bias=False)
            (conv1d): Conv1d(192, 192, kernel_size=(4,), stride=(1,), padding=(3,), groups=192)
            (act): SiLU()
            (x_proj): Linear(in_features=192, out_features=38, bias=False)
            (dt_proj): Linear(in_features=6, out_features=192, bias=True)
            (conv1d_b): Conv1d(192, 192, kernel_size=(4,), stride=(1,), padding=(3,), groups=192)
            (x_proj_b): Linear(in_features=192, out_features=38, bias=False)
            (dt_proj_b): Linear(in_features=6, out_features=192, bias=True)
            (conv1d_s): Conv1d(192, 192, kernel_size=(4,), stride=(1,), padding=(3,), groups=192)
            (x_proj_s): Linear(in_features=192, out_features=38, bias=False)
            (dt_proj_s): Linear(in_features=6, out_features=192, bias=True)
            (out_proj): Linear(in_features=192, out_features=96, bias=False)
          )
        )
      )
      (2): Sequential(
        (0): MambaLayer(
          (norm): LayerNorm((192,), eps=1e-05, elementwise_affine=True)
          (mamba): Mamba(
            (in_proj): Linear(in_features=192, out_features=768, bias=False)
            (conv1d): Conv1d(384, 384, kernel_size=(4,), stride=(1,), padding=(3,), groups=384)
            (act): SiLU()
            (x_proj): Linear(in_features=384, out_features=44, bias=False)
            (dt_proj): Linear(in_features=12, out_features=384, bias=True)
            (conv1d_b): Conv1d(384, 384, kernel_size=(4,), stride=(1,), padding=(3,), groups=384)
            (x_proj_b): Linear(in_features=384, out_features=44, bias=False)
            (dt_proj_b): Linear(in_features=12, out_features=384, bias=True)
            (conv1d_s): Conv1d(384, 384, kernel_size=(4,), stride=(1,), padding=(3,), groups=384)
            (x_proj_s): Linear(in_features=384, out_features=44, bias=False)
            (dt_proj_s): Linear(in_features=12, out_features=384, bias=True)
            (out_proj): Linear(in_features=384, out_features=192, bias=False)
          )
        )
        (1): MambaLayer(
          (norm): LayerNorm((192,), eps=1e-05, elementwise_affine=True)
          (mamba): Mamba(
            (in_proj): Linear(in_features=192, out_features=768, bias=False)
            (conv1d): Conv1d(384, 384, kernel_size=(4,), stride=(1,), padding=(3,), groups=384)
            (act): SiLU()
            (x_proj): Linear(in_features=384, out_features=44, bias=False)
            (dt_proj): Linear(in_features=12, out_features=384, bias=True)
            (conv1d_b): Conv1d(384, 384, kernel_size=(4,), stride=(1,), padding=(3,), groups=384)
            (x_proj_b): Linear(in_features=384, out_features=44, bias=False)
            (dt_proj_b): Linear(in_features=12, out_features=384, bias=True)
            (conv1d_s): Conv1d(384, 384, kernel_size=(4,), stride=(1,), padding=(3,), groups=384)
            (x_proj_s): Linear(in_features=384, out_features=44, bias=False)
            (dt_proj_s): Linear(in_features=12, out_features=384, bias=True)
            (out_proj): Linear(in_features=384, out_features=192, bias=False)
          )
        )
      )
      (3): Sequential(
        (0): MambaLayer(
          (norm): LayerNorm((384,), eps=1e-05, elementwise_affine=True)
          (mamba): Mamba(
            (in_proj): Linear(in_features=384, out_features=1536, bias=False)
            (conv1d): Conv1d(768, 768, kernel_size=(4,), stride=(1,), padding=(3,), groups=768)
            (act): SiLU()
            (x_proj): Linear(in_features=768, out_features=56, bias=False)
            (dt_proj): Linear(in_features=24, out_features=768, bias=True)
            (conv1d_b): Conv1d(768, 768, kernel_size=(4,), stride=(1,), padding=(3,), groups=768)
            (x_proj_b): Linear(in_features=768, out_features=56, bias=False)
            (dt_proj_b): Linear(in_features=24, out_features=768, bias=True)
            (conv1d_s): Conv1d(768, 768, kernel_size=(4,), stride=(1,), padding=(3,), groups=768)
            (x_proj_s): Linear(in_features=768, out_features=56, bias=False)
            (dt_proj_s): Linear(in_features=24, out_features=768, bias=True)
            (out_proj): Linear(in_features=768, out_features=384, bias=False)
          )
        )
        (1): MambaLayer(
          (norm): LayerNorm((384,), eps=1e-05, elementwise_affine=True)
          (mamba): Mamba(
            (in_proj): Linear(in_features=384, out_features=1536, bias=False)
            (conv1d): Conv1d(768, 768, kernel_size=(4,), stride=(1,), padding=(3,), groups=768)
            (act): SiLU()
            (x_proj): Linear(in_features=768, out_features=56, bias=False)
            (dt_proj): Linear(in_features=24, out_features=768, bias=True)
            (conv1d_b): Conv1d(768, 768, kernel_size=(4,), stride=(1,), padding=(3,), groups=768)
            (x_proj_b): Linear(in_features=768, out_features=56, bias=False)
            (dt_proj_b): Linear(in_features=24, out_features=768, bias=True)
            (conv1d_s): Conv1d(768, 768, kernel_size=(4,), stride=(1,), padding=(3,), groups=768)
            (x_proj_s): Linear(in_features=768, out_features=56, bias=False)
            (dt_proj_s): Linear(in_features=24, out_features=768, bias=True)
            (out_proj): Linear(in_features=768, out_features=384, bias=False)
          )
        )
      )
      (4): Sequential(
        (0): MambaLayer(
          (norm): LayerNorm((768,), eps=1e-05, elementwise_affine=True)
          (mamba): Mamba(
            (in_proj): Linear(in_features=768, out_features=3072, bias=False)
            (conv1d): Conv1d(1536, 1536, kernel_size=(4,), stride=(1,), padding=(3,), groups=1536)
            (act): SiLU()
            (x_proj): Linear(in_features=1536, out_features=80, bias=False)
            (dt_proj): Linear(in_features=48, out_features=1536, bias=True)
            (conv1d_b): Conv1d(1536, 1536, kernel_size=(4,), stride=(1,), padding=(3,), groups=1536)
            (x_proj_b): Linear(in_features=1536, out_features=80, bias=False)
            (dt_proj_b): Linear(in_features=48, out_features=1536, bias=True)
            (conv1d_s): Conv1d(1536, 1536, kernel_size=(4,), stride=(1,), padding=(3,), groups=1536)
            (x_proj_s): Linear(in_features=1536, out_features=80, bias=False)
            (dt_proj_s): Linear(in_features=48, out_features=1536, bias=True)
            (out_proj): Linear(in_features=1536, out_features=768, bias=False)
          )
        )
        (1): MambaLayer(
          (norm): LayerNorm((768,), eps=1e-05, elementwise_affine=True)
          (mamba): Mamba(
            (in_proj): Linear(in_features=768, out_features=3072, bias=False)
            (conv1d): Conv1d(1536, 1536, kernel_size=(4,), stride=(1,), padding=(3,), groups=1536)
            (act): SiLU()
            (x_proj): Linear(in_features=1536, out_features=80, bias=False)
            (dt_proj): Linear(in_features=48, out_features=1536, bias=True)
            (conv1d_b): Conv1d(1536, 1536, kernel_size=(4,), stride=(1,), padding=(3,), groups=1536)
            (x_proj_b): Linear(in_features=1536, out_features=80, bias=False)
            (dt_proj_b): Linear(in_features=48, out_features=1536, bias=True)
            (conv1d_s): Conv1d(1536, 1536, kernel_size=(4,), stride=(1,), padding=(3,), groups=1536)
            (x_proj_s): Linear(in_features=1536, out_features=80, bias=False)
            (dt_proj_s): Linear(in_features=48, out_features=1536, bias=True)
            (out_proj): Linear(in_features=1536, out_features=768, bias=False)
          )
        )
      )
    )
    (gscs): ModuleList(
      (0): GSC(
        (proj): Conv3d(48, 48, kernel_size=(3, 3, 3), stride=(1, 1, 1), padding=(1, 1, 1))
        (norm): InstanceNorm3d(48, eps=1e-05, momentum=0.1, affine=False, track_running_stats=False)
        (nonliner): ReLU()
        (proj2): Conv3d(48, 48, kernel_size=(3, 3, 3), stride=(1, 1, 1), padding=(1, 1, 1))
        (norm2): InstanceNorm3d(48, eps=1e-05, momentum=0.1, affine=False, track_running_stats=False)
        (nonliner2): ReLU()
        (proj3): Conv3d(48, 48, kernel_size=(1, 1, 1), stride=(1, 1, 1))
        (norm3): InstanceNorm3d(48, eps=1e-05, momentum=0.1, affine=False, track_running_stats=False)
        (nonliner3): ReLU()
        (proj4): Conv3d(48, 48, kernel_size=(1, 1, 1), stride=(1, 1, 1))
        (norm4): InstanceNorm3d(48, eps=1e-05, momentum=0.1, affine=False, track_running_stats=False)
        (nonliner4): ReLU()
      )
      (1): GSC(
        (proj): Conv3d(96, 96, kernel_size=(3, 3, 3), stride=(1, 1, 1), padding=(1, 1, 1))
        (norm): InstanceNorm3d(96, eps=1e-05, momentum=0.1, affine=False, track_running_stats=False)
        (nonliner): ReLU()
        (proj2): Conv3d(96, 96, kernel_size=(3, 3, 3), stride=(1, 1, 1), padding=(1, 1, 1))
        (norm2): InstanceNorm3d(96, eps=1e-05, momentum=0.1, affine=False, track_running_stats=False)
        (nonliner2): ReLU()
        (proj3): Conv3d(96, 96, kernel_size=(1, 1, 1), stride=(1, 1, 1))
        (norm3): InstanceNorm3d(96, eps=1e-05, momentum=0.1, affine=False, track_running_stats=False)
        (nonliner3): ReLU()
        (proj4): Conv3d(96, 96, kernel_size=(1, 1, 1), stride=(1, 1, 1))
        (norm4): InstanceNorm3d(96, eps=1e-05, momentum=0.1, affine=False, track_running_stats=False)
        (nonliner4): ReLU()
      )
      (2): GSC(
        (proj): Conv3d(192, 192, kernel_size=(3, 3, 3), stride=(1, 1, 1), padding=(1, 1, 1))
        (norm): InstanceNorm3d(192, eps=1e-05, momentum=0.1, affine=False, track_running_stats=False)
        (nonliner): ReLU()
        (proj2): Conv3d(192, 192, kernel_size=(3, 3, 3), stride=(1, 1, 1), padding=(1, 1, 1))
        (norm2): InstanceNorm3d(192, eps=1e-05, momentum=0.1, affine=False, track_running_stats=False)
        (nonliner2): ReLU()
        (proj3): Conv3d(192, 192, kernel_size=(1, 1, 1), stride=(1, 1, 1))
        (norm3): InstanceNorm3d(192, eps=1e-05, momentum=0.1, affine=False, track_running_stats=False)
        (nonliner3): ReLU()
        (proj4): Conv3d(192, 192, kernel_size=(1, 1, 1), stride=(1, 1, 1))
        (norm4): InstanceNorm3d(192, eps=1e-05, momentum=0.1, affine=False, track_running_stats=False)
        (nonliner4): ReLU()
      )
      (3): GSC(
        (proj): Conv3d(384, 384, kernel_size=(3, 3, 3), stride=(1, 1, 1), padding=(1, 1, 1))
        (norm): InstanceNorm3d(384, eps=1e-05, momentum=0.1, affine=False, track_running_stats=False)
        (nonliner): ReLU()
        (proj2): Conv3d(384, 384, kernel_size=(3, 3, 3), stride=(1, 1, 1), padding=(1, 1, 1))
        (norm2): InstanceNorm3d(384, eps=1e-05, momentum=0.1, affine=False, track_running_stats=False)
        (nonliner2): ReLU()
        (proj3): Conv3d(384, 384, kernel_size=(1, 1, 1), stride=(1, 1, 1))
        (norm3): InstanceNorm3d(384, eps=1e-05, momentum=0.1, affine=False, track_running_stats=False)
        (nonliner3): ReLU()
        (proj4): Conv3d(384, 384, kernel_size=(1, 1, 1), stride=(1, 1, 1))
        (norm4): InstanceNorm3d(384, eps=1e-05, momentum=0.1, affine=False, track_running_stats=False)
        (nonliner4): ReLU()
      )
      (4): GSC(
        (proj): Conv3d(768, 768, kernel_size=(3, 3, 3), stride=(1, 1, 1), padding=(1, 1, 1))
        (norm): InstanceNorm3d(768, eps=1e-05, momentum=0.1, affine=False, track_running_stats=False)
        (nonliner): ReLU()
        (proj2): Conv3d(768, 768, kernel_size=(3, 3, 3), stride=(1, 1, 1), padding=(1, 1, 1))
        (norm2): InstanceNorm3d(768, eps=1e-05, momentum=0.1, affine=False, track_running_stats=False)
        (nonliner2): ReLU()
        (proj3): Conv3d(768, 768, kernel_size=(1, 1, 1), stride=(1, 1, 1))
        (norm3): InstanceNorm3d(768, eps=1e-05, momentum=0.1, affine=False, track_running_stats=False)
        (nonliner3): ReLU()
        (proj4): Conv3d(768, 768, kernel_size=(1, 1, 1), stride=(1, 1, 1))
        (norm4): InstanceNorm3d(768, eps=1e-05, momentum=0.1, affine=False, track_running_stats=False)
        (nonliner4): ReLU()
      )
    )
    (mlps): ModuleList(
      (0): MlpChannel(
        (fc1): Conv3d(48, 96, kernel_size=(1, 1, 1), stride=(1, 1, 1))
        (act): GELU(approximate='none')
        (fc2): Conv3d(96, 48, kernel_size=(1, 1, 1), stride=(1, 1, 1))
      )
      (1): MlpChannel(
        (fc1): Conv3d(96, 192, kernel_size=(1, 1, 1), stride=(1, 1, 1))
        (act): GELU(approximate='none')
        (fc2): Conv3d(192, 96, kernel_size=(1, 1, 1), stride=(1, 1, 1))
      )
      (2): MlpChannel(
        (fc1): Conv3d(192, 384, kernel_size=(1, 1, 1), stride=(1, 1, 1))
        (act): GELU(approximate='none')
        (fc2): Conv3d(384, 192, kernel_size=(1, 1, 1), stride=(1, 1, 1))
      )
      (3): MlpChannel(
        (fc1): Conv3d(384, 768, kernel_size=(1, 1, 1), stride=(1, 1, 1))
        (act): GELU(approximate='none')
        (fc2): Conv3d(768, 384, kernel_size=(1, 1, 1), stride=(1, 1, 1))
      )
      (4): MlpChannel(
        (fc1): Conv3d(768, 1536, kernel_size=(1, 1, 1), stride=(1, 1, 1))
        (act): GELU(approximate='none')
        (fc2): Conv3d(1536, 768, kernel_size=(1, 1, 1), stride=(1, 1, 1))
      )
    )
    (norm0): InstanceNorm3d(48, eps=1e-05, momentum=0.1, affine=False, track_running_stats=False)
    (norm1): InstanceNorm3d(96, eps=1e-05, momentum=0.1, affine=False, track_running_stats=False)
    (norm2): InstanceNorm3d(192, eps=1e-05, momentum=0.1, affine=False, track_running_stats=False)
    (norm3): InstanceNorm3d(384, eps=1e-05, momentum=0.1, affine=False, track_running_stats=False)
    (norm4): InstanceNorm3d(768, eps=1e-05, momentum=0.1, affine=False, track_running_stats=False)
  )
  (decoder): Decoder(
    (pos_drop): Dropout(p=0.0, inplace=False)
    (layers): ModuleList(
      (0): BasicLayer_up(
        (blocks): ModuleList(
          (0): SwinTransformerBlock_kv(
            (norm1): LayerNorm((96,), eps=1e-05, elementwise_affine=True)
            (attn): WindowAttention_kv(
              (kv): Linear(in_features=96, out_features=192, bias=True)
              (attn_drop): Dropout(p=0.0, inplace=False)
              (proj): Linear(in_features=96, out_features=96, bias=True)
              (proj_drop): Dropout(p=0.0, inplace=False)
              (softmax): Softmax(dim=-1)
            )
            (drop_path): DropPath()
            (norm2): LayerNorm((96,), eps=1e-05, elementwise_affine=True)
            (mlp): Mlp(
              (fc1): Linear(in_features=96, out_features=384, bias=True)
              (act): GELU(approximate='none')
              (fc2): Linear(in_features=384, out_features=96, bias=True)
              (drop): Dropout(p=0.0, inplace=False)
            )
          )
          (1): SwinTransformerBlock(
            (norm1): LayerNorm((96,), eps=1e-05, elementwise_affine=True)
            (attn): WindowAttention(
              (qkv): Linear(in_features=96, out_features=288, bias=True)
              (attn_drop): Dropout(p=0.0, inplace=False)
              (proj): Linear(in_features=96, out_features=96, bias=True)
              (proj_drop): Dropout(p=0.0, inplace=False)
              (softmax): Softmax(dim=-1)
            )
            (drop_path): DropPath()
            (norm2): LayerNorm((96,), eps=1e-05, elementwise_affine=True)
            (mlp): Mlp(
              (fc1): Linear(in_features=96, out_features=384, bias=True)
              (act): GELU(approximate='none')
              (fc2): Linear(in_features=384, out_features=96, bias=True)
              (drop): Dropout(p=0.0, inplace=False)
            )
          )
        )
        (Upsample): Patch_Expanding(
          (norm): LayerNorm((192,), eps=1e-05, elementwise_affine=True)
          (up): ConvTranspose3d(192, 96, kernel_size=(2, 2, 2), stride=(2, 2, 2))
        )
      )
      (1): BasicLayer_up(
        (blocks): ModuleList(
          (0): SwinTransformerBlock_kv(
            (norm1): LayerNorm((192,), eps=1e-05, elementwise_affine=True)
            (attn): WindowAttention_kv(
              (kv): Linear(in_features=192, out_features=384, bias=True)
              (attn_drop): Dropout(p=0.0, inplace=False)
              (proj): Linear(in_features=192, out_features=192, bias=True)
              (proj_drop): Dropout(p=0.0, inplace=False)
              (softmax): Softmax(dim=-1)
            )
            (drop_path): DropPath()
            (norm2): LayerNorm((192,), eps=1e-05, elementwise_affine=True)
            (mlp): Mlp(
              (fc1): Linear(in_features=192, out_features=768, bias=True)
              (act): GELU(approximate='none')
              (fc2): Linear(in_features=768, out_features=192, bias=True)
              (drop): Dropout(p=0.0, inplace=False)
            )
          )
          (1): SwinTransformerBlock(
            (norm1): LayerNorm((192,), eps=1e-05, elementwise_affine=True)
            (attn): WindowAttention(
              (qkv): Linear(in_features=192, out_features=576, bias=True)
              (attn_drop): Dropout(p=0.0, inplace=False)
              (proj): Linear(in_features=192, out_features=192, bias=True)
              (proj_drop): Dropout(p=0.0, inplace=False)
              (softmax): Softmax(dim=-1)
            )
            (drop_path): DropPath()
            (norm2): LayerNorm((192,), eps=1e-05, elementwise_affine=True)
            (mlp): Mlp(
              (fc1): Linear(in_features=192, out_features=768, bias=True)
              (act): GELU(approximate='none')
              (fc2): Linear(in_features=768, out_features=192, bias=True)
              (drop): Dropout(p=0.0, inplace=False)
            )
          )
        )
        (Upsample): Patch_Expanding(
          (norm): LayerNorm((384,), eps=1e-05, elementwise_affine=True)
          (up): ConvTranspose3d(384, 192, kernel_size=(2, 2, 2), stride=(2, 2, 2))
        )
      )
      (2): BasicLayer_up(
        (blocks): ModuleList(
          (0): SwinTransformerBlock_kv(
            (norm1): LayerNorm((384,), eps=1e-05, elementwise_affine=True)
            (attn): WindowAttention_kv(
              (kv): Linear(in_features=384, out_features=768, bias=True)
              (attn_drop): Dropout(p=0.0, inplace=False)
              (proj): Linear(in_features=384, out_features=384, bias=True)
              (proj_drop): Dropout(p=0.0, inplace=False)
              (softmax): Softmax(dim=-1)
            )
            (drop_path): Identity()
            (norm2): LayerNorm((384,), eps=1e-05, elementwise_affine=True)
            (mlp): Mlp(
              (fc1): Linear(in_features=384, out_features=1536, bias=True)
              (act): GELU(approximate='none')
              (fc2): Linear(in_features=1536, out_features=384, bias=True)
              (drop): Dropout(p=0.0, inplace=False)
            )
          )
          (1): SwinTransformerBlock(
            (norm1): LayerNorm((384,), eps=1e-05, elementwise_affine=True)
            (attn): WindowAttention(
              (qkv): Linear(in_features=384, out_features=1152, bias=True)
              (attn_drop): Dropout(p=0.0, inplace=False)
              (proj): Linear(in_features=384, out_features=384, bias=True)
              (proj_drop): Dropout(p=0.0, inplace=False)
              (softmax): Softmax(dim=-1)
            )
            (drop_path): DropPath()
            (norm2): LayerNorm((384,), eps=1e-05, elementwise_affine=True)
            (mlp): Mlp(
              (fc1): Linear(in_features=384, out_features=1536, bias=True)
              (act): GELU(approximate='none')
              (fc2): Linear(in_features=1536, out_features=384, bias=True)
              (drop): Dropout(p=0.0, inplace=False)
            )
          )
        )
        (Upsample): Patch_Expanding(
          (norm): LayerNorm((768,), eps=1e-05, elementwise_affine=True)
          (up): ConvTranspose3d(768, 384, kernel_size=(2, 2, 2), stride=(2, 2, 2))
        )
      )
    )
  )
  (final): ModuleList(
    (0): final_patch_expanding(
      (up): ConvTranspose3d(96, 4, kernel_size=(4, 4, 4), stride=(4, 4, 4))
    )
  )
) 
2024-05-15 18:40:11.510945: 
 
2024-05-15 18:40:11.530528: 
epoch:  0 
2024-05-15 18:41:32.733267: train loss : 0.2531 
2024-05-15 18:41:37.815774: validation loss: -0.1080 
2024-05-15 18:41:37.816972: Average global foreground Dice: [0.5543773739845186, 0.014882844131757904, 0.024835711893797685] 
2024-05-15 18:41:37.817043: (interpret this as an estimate for the Dice of the different classes. This is not exact.) 
…
